HW5/python/modelemnist.ckpt (torch_old, 351250 bytes, 14 tensors)

layer1.0.weight f4 [16, 1, 5, 5]
00000000: dfa8 c43d 082f 55bd 9428 813e 21ee 2b3e
00000010: cd25 d0be 7508 efbd 5be3 293d 3d7e af3d
00000020: ab40 143e 372a 72be fceb 94be f527 0cbd
00000030: 3133 6a3e 45a3 0e3e 5a24 51be d7d3 45be
00000040: b5ee 9c3d c76e 0a3e 44ce cd3d cfe4 4cbe
00000050: 2e3f f5bd 6ead 23be b323 9f3e df31 2e3e
00000060: 5b9f 26be 76b1 7cbd 3fac 61be d6a7 24bd
00000070: 37a6 3c3c e476 833e d7ba 723d 2a60 ea3d
00000080: e154 c03e ab12 413e dcdc 173e 94e9 013e
00000090: 4c47 993e c5d5 58bd 85cc 3cbb 57a3 96be
000000a0: 388f 14be 8448 eabd 1059 10be 3fbd 41be
000000b0: a235 22be ff91 35be a337 8abe 6a72 3ebe
000000c0: 659e b6bd 3433 ab3e a1e8 923d 0592 243e
000000d0: 43b1 94bd e03b 16bd 14d0 a7be 3544 f43d
000000e0: 9b86 ea3c c3e9 fabd b7b1 9cbe 8155 4dbd
000000f0: 4ce5 903e ee40 6bbc a52e 83be 1cd6 7abe
00000100: 0bd9 363e 1e2b e23d 760c c1be d9bd 9ebe
00000110: 31fb 173e b907 6d3d e8e7 acbe 5950 8dbe
00000120: c9a2 043e be81 87bb b289 fb3c 4d78 11ba
00000130: 4723 a33e 82d2 d63d 94bb 4abc 44bf 9b3a
00000140: 75b3 22be 9cf1 86be 0321 d7be 51cf 47be
00000150: 91e9 85be 151a 41bb 2ee6 8cbe ad5f c63d
00000160: 3118 6fbe f20a 72be 6cea d4bd 6d0b 423e
00000170: 7b30 71be 40a1 873d 2ad6 873d 3db3 023e
00000180: adb9 543e 8856 b03e d77a 293e 8b71 01be
00000190: e9a2 9abd 4363 5b3e a050 68bd 7296 b5be
000001a0: 5a31 9abe 0558 633d 1398 8fbd b672 923e
000001b0: 05a7 073e fe49 44bd 2a9e 70be fe19 073e
000001c0: 4360 463e 21a7 d33e dc13 a83d 6794 abbd
000001d0: 263e e5bb 4767 acbe d96d 143c 0311 2abd
000001e0: 02a6 56bd acf8 4ebe b1fa ecbd 90a2 acbd
000001f0: f9b0 043e e3a9 fabd 2210 e93c 6d14 3a3e
00000200: 9b61 813d 386d 043e 29b2 833d 0b83 87be
00000210: 4df6 a9be dbba 263e f93b d13d 5335 a93e
00000220: d0d9 9abd 6b70 51be 4e93 813e dd3b dbbd
00000230: ce92 28bd 9495 403e 7ec4 ca3d e6c6 71be
00000240: 357e 86be fae4 c13d 102b debd ce71 5b3e
00000250: f6b0 a13e d153 bf3b cc7a 383d 859e 5c3e
00000260: db7d af3e 60b2 573d d7f3 3abe ca44 603d
00000270: b4e9 303e f2e4 6a3e e976 2abe 7f57 c7be
00000280: 7330 623d d5aa 653d e04c adbd b9f9 b4be
00000290: e469 6a3d fb54 26be e73f 54be 0ba3 41be
000002a0: c7d3 18be 7545 103c 3497 dd3c e940 05bd
000002b0: 7f4e 8fbe 6bac ddbd 27b9 553d 8df2 a9be
000002c0: da57 3dbe 5b09 293d 8b73 813e bc3d 813d
000002d0: a0e0 babe 8eb4 8e3d 4f05 133c 49f6 8b3e
000002e0: aa74 203d 6c8e 92be b3e3 f13b 9862 c3bd
000002f0: 2d9f 9b3e 20f6 2dbe cd66 85be 262c 58be
00000300: f428 8cbd 7e83 623e 4dc7 fa3c b8e4 d7bd
00000310: 5836 26be 114b 8a3d 1a35 a63e 83d0 3a3c
00000320: 8094 a3bc bdb5 3fbe 595a 97bd b258 de3d
00000330: 642e 9c3e a47f 46bd db90 06be bda0 c1be
00000340: a52c c5be 5179 373e bd23 1fbb d9c8 aa3d
00000350: 875f 9f3c 3969 e0be 288b c33d cbb5 193e
00000360: c18b 54bd 0f7a a13d 5f9b 81be 4501 31be
00000370: 3b7d 2e3e d9cc 1d3e 0152 e53d e8bd bd3c
00000380: a400 53be b413 76be daca 6bbe b8dc 2f3e
00000390: 0e99 163e dcc4 d2bd a03f b8be 93c4 b3be
000003a0: 307b 84bd b540 02be 76a6 cabd 8af9 dbbd
000003b0: 9311 1ebd c504 5cbc 386c 10bd 7464 80be
000003c0: 5aa2 c4be 001a 85bd ec86 b5be 6409 dbbe
000003d0: f786 a0bd 9e15 b9be 055a 15bd b36b fcbd
000003e0: d3f4 e93d 3042 813d 5f15 603d d619 6bbe
000003f0: 5f4b d1bc bf40 863d 6f2e 5e3e 7234 423e
0.09602522 -0.052046806 0.2522627 0.16790058 -0.4065384 -0.11671535 0.04147659 0.08569
0.14477794 -0.23648916 -0.29086292 -0.034217793 0.2287109 0.1392947 -0.20424023 -0.19319092
0.07662717 0.1351882 0.10049108 -0.20009159 -0.11974941 -0.15984127 0.31081924 0.17011212
-0.16271727 -0.061692677 -0.22038363 -0.040199123 0.011514238 0.25676644 0.059260216 0.11444123
0.37564757 0.18854778 0.14830345 0.12686759 0.29937208 -0.05293824 -0.0028808427 -0.29421493
-0.14507759 -0.114396125 -0.14096475 -0.18919848 -0.15840772 -0.17731474 -0.26995572 -0.18598333
-0.0891693 0.33437502 0.07173277 0.16071327 -0.072603725 -0.036678195 -0.3277594 0.11927072
0.028628638 -0.12251618 -0.30604336 -0.05013037 0.2829994 -0.014358742 -0.25621524 -0.24495739
0.17856233 0.1104338 -0.3770482 -0.31004217 0.14841916 0.057868693 -0.3377068 -0.27600363
0.12952723 -0.0041353395 0.030705307 -0.0005549237 0.31862852 0.1048937 -0.012373824 0.0011882563
-0.1588877 -0.26356208 -0.42017373 -0.19512679 -0.2615476 -0.002946501 -0.27519363 0.096862175
-0.23349072 -0.23636988 -0.10396275 0.18949671 -0.2355365 0.06622553 0.066326454 0.12763686
0.20773955 0.34441018 0.16550766 -0.1264097 -0.07550604 0.21424584 -0.056717515 -0.35466343
-0.30115777 0.055503864 -0.07011428 0.28603142 0.13247307 -0.047922127 -0.23497835 0.13193509
0.19372658 0.41338447 0.08206913 -0.08377915 -0.006995934 -0.33672544 0.009059393 -0.04152013
-0.05240441 -0.20212048 -0.11571253 -0.08429444 0.12958135 -0.122394346 0.028450076 0.18171854
0.06317445 0.12932289 0.06430466 -0.26467165 -0.33195725 0.16282217 0.10216517 0.33048496
-0.07561076 -0.2045304 0.25307697 -0.107047774 -0.04115563 0.1880706 0.09900759 -0.2361103
-0.26268163 0.09467502 -0.10848057 0.21430132 0.31580323 0.005838849 0.045038983 0.21544845
0.34275708 0.052660346 -0.1825708 0.054753102 0.1727665 0.22938898 -0.16646923 -0.38933942
0.055221986 0.05607112 -0.08461928 -0.35346773 0.05722989 -0.16243355 -0.20727502 -0.18909852
-0.14924537 0.008805622 0.027049638 -0.032532606 -0.27989575 -0.10823902 0.05217853 -0.33192864
-0.18490544 0.041268688 0.25283465 0.06310603 -0.364995 0.06968032 0.008973434 0.27336338
0.03917376 -0.28624284 0.00738188 -0.0954029 0.3039488 -0.1698842 -0.26054993 -0.21110591
-0.06843749 0.22120473 0.030612612 -0.105416715 -0.16231668 0.06752599 0.32462388 0.011402252
-0.019968271 -0.18721671 -0.07390279 0.10856761 0.30504143 -0.04846157 -0.13141195 -0.37817946
-0.38510624 0.17917372 -0.0024282776 0.0833909 0.01945473 -0.4383028 0.09548026 0.15010755
-0.051891092 0.07884609 -0.2531385 -0.1728564 0.17039959 0.15410174 0.11197282 0.023161843
-0.20605713 -0.24030954 -0.230266 0.17174041 0.14706823 -0.10291454 -0.35986042 -0.35110912
-0.06468809 -0.12719996 -0.09895031 -0.10740955 -0.03859098 -0.0134288715 -0.035259455 -0.2507664
-0.38405114 -0.064991 -0.354545 -0.42780602 -0.078382425 -0.36149305 -0.036462802 -0.123252295
0.1142365 0.063114524 0.05470788 -0.22959074 -0.025548635 0.06555318 0.216974 0.18965319

layer1.0.bias f4 [16]
00000000: db4b 93c0 f1c6 a4c0 397c 9fc0 945f b8c0
00000010: aa4f b2c0 e543 bdc0 7e09 97c0 9597 b1c0
00000020: 6619 9fc0 cf97 c2c0 3cfe acc0 e14d cac0
00000030: 9fc9 83c0 f430 cfc0 4de1 d4c0 965a b9c0
-4.6030097 -5.149285 -4.983914 -5.7616673 -5.5722246 -5.914538 -4.7199087 -5.5497537
-4.9718504 -6.0810313 -5.4060345 -6.3220067 -4.118362 -6.4747257 -6.6525025 -5.792308

layer1.1.weight f4 [16]
00000000: ef4f af3e 03c1 b33e 0679 893f fc35 3c3f
00000010: 225e 123f c0eb ef3e efe1 dd3e c7f5 d53e
00000020: 303b 843f 6aad 643f 82f0 093f 909c d33e
00000030: de34 e13e 5d02 ae3e 183c c53e 45c8 393f
0.34240672 0.35108194 1.0740058 0.73519874 0.57174885 0.4685955 0.43336436 0.41789076
1.0330563 0.8932711 0.5388261 0.41330385 0.43985647 0.33986178 0.3852241 0.7257121

layer1.1.bias f4 [16]
00000000: 7da7 f7bd d5d8 17be eca8 abbe a84f 8bbe
00000010: d44f 63be 6e5d 23bf cd68 cdbd fda1 1dbe
00000020: 8cb8 78be 0bea 57be ca68 33be 58cf 14bf
00000030: ba04 adbe 31f1 d5be fd71 b7be a98b 80be
-0.12092493 -0.14828809 -0.33527315 -0.2720921 -0.22198421 -0.6381444 -0.10029755 -0.15393825
-0.24289149 -0.21085374 -0.17520443 -0.5812888 -0.3379267 -0.41785577 -0.35829154 -0.25106552

layer1.1.running_mean f4 [16]
00000000: a788 94c0 5bd0 a5c0 4c23 a7c0 66ab bcc0
00000010: ad55 b4c0 ff72 bac0 5644 9cc0 9a85 b4c0
00000020: 82de a3c0 6327 d5c0 326f aec0 74f7 c8c0
00000030: a7c9 82c0 a37d ccc0 8fa4 d1c0 7c2d bdc0
-4.641681 -5.181684 -5.2230587 -5.8959227 -5.6354585 -5.8265376 -4.883342 -5.641309
-5.1209116 -6.661058 -5.4510736 -6.2802067 -4.087116 -6.3903365 -6.5513377 -5.9118023

layer1.1.running_var f4 [16]
00000000: 956a 6d3d 3850 cb3d fa1c 5d3e 1ee6 1a3e
00000010: 6fad 293d 72b8 eb3c a383 503e 2c7e 423e
00000020: 8d1b ef3d 9263 2e3f aea2 cf3c b763 053d
00000030: 3ccd a93c 30e4 b63d 3154 113e 0a79 543e
0.057962973 0.0992741 0.21593085 0.15126845 0.041425165 0.028774474 0.20362715 0.18993443
0.11675177 0.6812068 0.025346126 0.0325658 0.020727746 0.08930242 0.14192273 0.20749298

layer2.0.weight f4 [32, 16, 5, 5]
00000000: d6b5 d13d d800 67bd 2b79 b63d a0d0 61bd
00000010: 3a33 ed3c ece9 24be cc67 26bd 9ce0 433d
00000020: f71b 08be 18bc 2cbe ddf9 8fbe 4ee7 3abe
00000030: 4bc4 023d 7cdf df3d 68b3 863d 3707 743c
00000040: dede 31bc c5cf 33bd 3fe6 2a3e 0213 42bd
00000050: 5cd8 7f3e 552c 423e cc4b 8cbd 33a7 4f3c
00000060: 2bfa 0dbc 0c87 eabd 3d6a bfbd 543b 37bd
00000070: d50f 42be f213 443d 6d50 3c3d fdc3 1f3d
00000080: 360f b1bc 96d1 123e 8ad6 a33d fe1f 4fbe
00000090: dcde cc3d ca60 9cbc f211 64bc 6060 76bb
000000a0: 56c0 e8bd 2000 a8bd eaed 81be 1fc4 a8be
000000b0: 92f4 f3bd 3aea 8a3b 161b 2bbe 0c54 b13d
000000c0: 2f99 04bd e958 1bbe 6c38 553d 41cc 3cbe
000000d0: 20cf 27bd 4100 9d3d 8644 66be 7672 83be
000000e0: d6de a3bb 6b09 d13d cbd5 03bd 2e76 783c
000000f0: 9327 a43d c521 02bb 2b11 213e 78f0 4a3e
00000100: 9dcc 8e3d f9bc 333e 2236 583e 13a1 a33d
00000110: c387 fdbc a7a5 3cbe 6f6d d4be ef43 abbe
00000120: 7b58 bfbe 9b02 7e3d a1bd a53d 7e3e 403d
00000130: 6452 f43d 5a1f 143e 2820 933e 68f6 d83d
00000140: 3af0 373e 1289 6a3e 17fa 9d3e b538 513d
00000150: e39a b5bb 596d 353d 460f 263d 43bf da3c
00000160: d713 d2be 8845 82be e404 65be 2265 f0bd
00000170: a414 21be 10fc aabc efd7 573d 9b09 17be
00000180: 5d5b cd3d 6a4c 693e 0e61 8a3e 5396 9dbc
00000190: 7fc7 213e 5bc6 b53d e040 313d 11e0 12be
000001a0: c677 a23d 71f9 863e 0c92 a73c a5f9 96bd
000001b0: 6277 cabd 2120 d73d 11d9 b63d 2225 c6bd
000001c0: 86ce 9dbc 80f8 1d3e abd2 4f3e 37c1 c6bc
000001d0: 4cc2 20be 2e3f 003e 0ef6 e53d 3575 013e
000001e0: f4c0 f53c 2ed8 ba3e 6db8 863e fc9b 5a3e
000001f0: 8c5a 7b3d 32b3 58bd 79c0 b43d 35be 25be
00000200: ad18 4dbe 9fa1 983d 293b 7ebe 54a2 4abe
00000210: d461 31be 5e10 54be d4d5 4f3d add2 2fbe
00000220: 9115 a0bb 3e84 e53c f57f 15bd 4249 9cbd
00000230: e3f2 1a3d 4587 c13e 1076 c9bd 0260 02bd
00000240: 629b 143e a977 85bc 30f3 94bd 4279 2dbe
00000250: 8bb0 64be 7ca2 f3bd 7c5b 5cbc 88cf 9abd
00000260: 7f71 46bd a4e2 ff39 934d 58bc 9bd3 46bb
00000270: cff8 053d eef8 ea3c aa46 2ebd ac68 223e
00000280: 01b9 843e 8fce 693e 9024 d5bb 2864 9e3c
00000290: 8503 ebbd 2269 22bd eaeb 82bd 37a0 4d3e
000002a0: b768 8d3d 31d1 03be 90e8 b9be 672b cfbe
000002b0: 3ea2 44be 0848 f53d 5a4d c3bd 429b d9bd
000002c0: 6e92 01be 95d3 b13d 2514 45bd ae1b 053d
000002d0: 05f7 10be 3913 393d 7b72 91bc be79 3ebd
000002e0: 24f9 dfbd b75c a83c 8023 2d3a 2ef1 a03d
000002f0: b464 b03d fabf c4bc c0f3 263d 82a1 903c
00000300: 23c7 a73d 0172 e83d 5e00 93bd 3838 d93d
00000310: bced e7bd ac60 d4bd aaa4 343e e37e a8be
00000320: 2f56 863d 6c23 92bd bd27 01be dc57 bebd
00000330: e611 9ebd 2064 3f3d 3a3d c6bd 1a92 183e
00000340: 4a0f bf3d 2514 04be 5293 0abf 5b68 cbbe
00000350: 4bc6 01be ba73 78be 3825 4ebe 2b0d 0dbe
00000360: b0c8 18be 3a4b 98be 1453 f0bd f40e 603d
00000370: cc63 773e a12b 9c3e 998e 803e 2b55 583e
00000380: 9011 cc3c aee2 70be 3963 86be 5416 f43c
00000390: 8de6 f3bd 0e1a 91be 0fe6 b13d 313a 403e
000003a0: e6f3 213e cd49 b8bc a992 203c 0c9f cd3d
000003b0: 4971 febc 87a9 a3be bfb2 8dbd 83c6 9ebc
000003c0: baa3 173e 7bf4 c73d 024c b3bb 3aab 39bd
000003d0: 246e b03d 89db e1be c03f 5abe 27a1 84be
000003e0: f1fa bfbe ded3 ebbd dd78 56bd fa5e a4bc
000003f0: 53d8 8fbd 4038 713d a6c1 54bc 7447 b7bc
0.102397606 -0.05639729 0.0890983 -0.0551306 0.02895509 -0.16104859 -0.040626332 0.047821626
-0.13291918 -0.16868627 -0.28120318 -0.18252298 0.03192548 0.10931298 0.06577188 0.014894298
-0.010856358 -0.043899316 0.16689394 -0.04738141 0.24984878 0.18962224 -0.068503946 0.012674141
-0.008665602 -0.114515394 -0.09346435 -0.044734314 -0.18951352 0.047870584 0.045975138 0.03900527
-0.021613698 0.14337763 0.079999045 -0.20227048 0.100034446 -0.019089121 -0.013920294 -0.0037594065
-0.1136481 -0.08203149 -0.25376827 -0.3296213 -0.119118825 0.0042393478 -0.16709551 0.08658609
-0.03237265 -0.15170635 0.05205576 -0.18437292 -0.040969014 0.07666064 -0.22487077 -0.25673264
-0.0050009293 0.102068745 -0.03218631 0.015164895 0.08015361 -0.0019856554 0.15729205 0.19818294
0.06972621 0.17552556 0.211144 0.07989707 -0.030948525 -0.18422566 -0.4148974 -0.33450267
-0.37372193 0.062014204 0.080928095 0.046934597 0.11929777 0.14465085 0.2873547 0.10593873
0.17962733 0.2290385 0.30854866 0.05107947 -0.0055421456 0.044293735 0.04054191 0.026702529
-0.41030762 -0.25443673 -0.22365147 -0.117380396 -0.1573053 -0.020872146 0.052696165 -0.14749758
0.10027192 0.22783056 0.27027172 -0.01923672 0.15798758 0.08875724 0.04327476 -0.14343287
0.07933001 0.26362184 0.020455383 -0.07371835 -0.09886052 0.10504175 0.08928121 -0.09675051
-0.019263517 0.15426826 0.20295207 -0.024262054 -0.15699118 0.12524101 0.11228572 0.12642367
0.029999234 0.36493057 0.2631258 0.21348566 0.06136565 -0.05290527 0.08825774 -0.1618584
-0.20028944 0.07452702 -0.24827255 -0.19788486 -0.17322475 -0.20709369 0.05074103 -0.1717021
-0.0048853834 0.02801716 -0.036498982 -0.0763116 0.03782929 0.37798515 -0.09836972 -0.03182984
0.14512399 -0.01629241 -0.07272947 -0.16940787 -0.22332971 -0.11896226 -0.013449546 -0.07559115
-0.048448082 0.0004880625 -0.013202089 -0.003033853 0.032707985 0.028683152 -0.04254786 0.15860242
0.25922397 0.22832702 -0.0065046027 0.019334868 -0.11475281 -0.039651044 -0.06392653 0.20080648
0.069047384 -0.12872769 -0.36310244 -0.404628 -0.19202515 0.119766295 -0.09536238 -0.10625316
-0.12653515 0.08682934 -0.048114914 0.0324971 -0.1415673 0.045184348 -0.017754784 -0.04650282
-0.10936192 0.020552022 0.0006604716 0.078585014 0.086129576 -0.024017323 0.040759802 0.017655138
0.08192279 0.113498695 -0.071778044 0.10606426 -0.11324641 -0.10370001 0.1764094 -0.32909307
0.06559407 -0.071356624 -0.12612815 -0.092941016 -0.077182576 0.046726346 -0.09679647 0.14899483
0.09329088 -0.1289831 -0.5413104 -0.39728054 -0.12673299 -0.24262896 -0.20131385 -0.13774554
-0.14920306 -0.29744893 -0.11734596 0.05470176 0.24159163 0.30502036 0.25108793 0.21126239
0.024910718 -0.23523971 -0.26247576 0.029795803 -0.119092084 -0.2834019 0.08686458 0.18772198
0.15815696 -0.022496128 0.0098005915 0.100401014 -0.031059878 -0.31965277 -0.06918859 -0.019381767
0.1480855 0.09763428 -0.0054717073 -0.04532931 0.08614758 -0.44112805 -0.21313381 -0.259042
-0.3749614 -0.1151502 -0.052361358 -0.02006482 -0.070236824 0.058891535 -0.0129856225 -0.022372939

layer2.0.bias f4 [32]
00000000: 1fff b0bd ab16 053c 3dc1 043e 2f15 533d
00000010: 0806 13bc 0fd6 2fbb 0d70 dbbd 18e1 233d
00000020: 31b4 a23d 704d 993b 0600 c73c 78c4 8bbb
00000030: f78e 433d 415b 6bbc 6084 bbbd 8de2 05be
00000040: d6d3 c2bd 4ebc be3d 0692 1a3e cbca 013e
00000050: 8682 143e 09ba 9e3d bbf7 6e3e a98d 0a3e
00000060: 9908 3c3e 1367 e9bd d299 48bc 7991 043e
00000070: fff8 623e 0d40 5a3e 5405 db3c fd1b 14be
-0.086424105 0.00812308 0.1296434 0.051533874 -0.008973606 -0.002683047 -0.10714731 0.040009588
0.07944525 0.0046784207 0.024292003 -0.0042653643 0.047743764 -0.014365018 -0.09156108 -0.13074704
-0.09513061 0.0931326 0.15094766 0.12675016 0.14502916 0.07750327 0.23336689 0.13530602
0.18362655 -0.11396613 -0.012243705 0.12946118 0.22165297 0.21313496 0.02673594 -0.14463802

layer2.1.weight f4 [32]
00000000: c749 823f 12c8 953f 18ea 933f 5be4 983f
00000010: c7c3 923f 10dd 8e3f 4aa0 8d3f c209 933f
00000020: acaa 593f 8aca 743f 6512 703f c21d 3f3f
00000030: 410c 913f d91d 8d3f 666b 863f 040a 8f3f
00000040: 5cb7 5c3f f62d 783f d8aa 4e3f 4b54 ab3f
00000050: 91c9 7f3f da22 4e3f ca2a 883f 4b6e 833f
00000060: ae5b 9a3f e57e 8f3f 0534 7d3f b80d 723f
00000070: f30d 9b3f 21cb 6a3f 3a71 7c3f 533f 803f
1.0178765 1.1701682 1.1555815 1.1944689 1.1465997 1.1161213 1.1064541 1.1487353
0.8502605 0.9562155 0.9377807 0.7465478 1.1331865 1.1024734 1.0501525 1.1174932
0.86217284 0.9694513 0.80729437 1.3385099 0.9991694 0.8052193 1.0638058 1.0268034
1.2059228 1.12106 0.989075 0.94552183 1.2113632 0.917162 0.9861027 1.0019325

layer2.1.bias f4 [32]
00000000: 9d8f 5fbf de72 4dbf 76f6 77bf e5e5 75bf
00000010: 6319 44bf 4de1 2ebf e2ef 35bf 936b 51bf
00000020: 1a87 44bf 74a8 38bf 7170 32bf 0174 debe
00000030: b7a5 37bf 4164 62bf 420b 56bf 3cba 62bf
00000040: b1e1 24bf da26 46bf 89dd 27bf 2b4c 57bf
00000050: 9710 34bf d931 3dbf 230c 6fbf bddd 4cbf
00000060: 0e90 6bbf 8708 57bf e46a 54bf b53d 3dbf
00000070: 1b39 46bf 53cb 59bf 9e35 1abf 30b9 46bf
-0.8732851 -0.802534 -0.96860445 -0.96053916 -0.7660124 -0.6831253 -0.7106916 -0.8180477
-0.7676865 -0.7213204 -0.6970282 -0.4344788 -0.71737236 -0.88434225 -0.8361093 -0.8856542
-0.6440688 -0.7740303 -0.6557241 -0.841006 -0.70337814 -0.73904186 -0.93377894 -0.80025846
-0.92016685 -0.83997387 -0.829756 -0.7392228 -0.77430886 -0.85075873 -0.60238063 -0.77626324

layer2.1.running_mean f4 [32]
00000000: 35c3 88bf adcb 37bf e94c 25bf 9824 333f
00000010: 93df 09bf c01e d83d 63ce 62bf 50f7 fa3e
00000020: 3480 42bf 6af0 04bf bf42 39bf 573d c0be
00000030: 46e1 dabe 0438 2dbf 60c7 e3be 1edb 41bf
00000040: 77a3 44bf ddc8 b7be f3e4 58bf 5e84 073e
00000050: ddb4 25bf 5259 63bf bf64 ef3f e7ee 203c
00000060: ff41 3ebf c3d4 5bbf 955c 513d b92a 9cbf
00000070: 0f03 423d af5c 50bf 7be7 e83e d435 e3be
-1.0684572 -0.7179516 -0.6457048 0.6997771 -0.5385677 0.1055274 -0.8859617 0.4901681
-0.7597687 -0.5192934 -0.7236747 -0.375468 -0.42749995 -0.676636 -0.4448805 -0.7572497
-0.7681193 -0.35895434 -0.8472435 0.13234088 -0.647291 -0.88808167 1.870262 0.009822584
-0.7431945 -0.85871524 0.051113684 -1.2200538 0.0473662 -0.81391424 0.45489106 -0.44377005

layer2.1.running_var f4 [32]
00000000: e84e 613f a781 b73f 28e3 643f 19ab 3f3f
00000010: 3e3b b73f 8ffd bb3f a746 843f b3f7 863f
00000020: 2e79 853f 0ea3 423f 7601 833f 4c16 843f
00000030: aebb dc3f 435b 6d3f 0e08 693f f0de c63f
00000040: 6013 bb3f 8fed 613f d8f5 553f eca5 793f
00000050: 5b6a 913f 0298 3d3f 6e1a 423f 7188 853f
00000060: 2ac4 9d3f e18e b83f 4a22 6d3f 9a86 683f
00000070: aa5d cd3f b7f4 333f 88f3 a03f 9c03 753f
0.88011026 1.4336442 0.8940911 0.7487045 1.4314954 1.4686755 1.0334061 1.0544342
1.0427606 0.7603005 1.0234821 1.0319304 1.7244775 0.9271738 0.91027915 1.5536785
1.4615288 0.8825311 0.8357825 0.975188 1.1360582 0.7406007 0.7582158 1.0432264
1.232549 1.4418603 0.92630446 0.90830386 1.6044209 0.7029528 1.257432 0.9570863

fc.weight f4 [47, 1568]
00000000: 2538 9abe e0ee 86be b994 3abe 19c0 a63c
00000010: 7bbb 1c3e 854d 6abd 1643 e83c 73dc e73d
00000020: a131 f63d 3631 5bbc bbe1 0a3e 7f43 bfbc
00000030: 4e68 62be 9b8b 22bf 70ef dd3d af95 0a3e
00000040: 9273 eabc e182 463d dc1b 883d ff1c 85be
00000050: 6d7e acbe 4cc4 b6bd 6638 27bd f551 6d3d
00000060: 271e 3f3d 017e e23d c713 8fbe 7a7b 2cbe
00000070: ebec 3fbc c600 153e 49bc 1739 65de 04bd
00000080: d9f8 823d 1c38 ffbe 1f17 e3bc a648 df3d
00000090: 996e e33e 1e45 9c3b 4f9b ee3b 9169 b73d
000000a0: cf7e fb3c c1b8 1ebf 6a8a 54bc 922c ba3d
000000b0: 99c0 3dbd 04ae fc3d 8c1c 9d3d 9802 5c3d
000000c0: 9449 1fbe 8d7f 19be 37b9 30be 792f 98be
000000d0: 4332 173e 5ce5 fd3d 07ab 763d c924 dabc
000000e0: ebe8 683d 4582 33be 0923 2fbe 1730 6dbe
000000f0: 78d0 263e c67d f73a b153 473d 84c1 efbc
00000100: ac94 34bd e9c0 363d f927 87be 17e4 363d
00000110: 9285 c0bc c324 963d 499d 13bb 8b83 91bd
00000120: 6a6d 103e 268f 00bc e2db f2bd 1efb 49bc
00000130: a9d3 31bc bd52 b43d b76d d53d 7413 f73d
00000140: 04cb 8e3c 448b 19be 8a84 883e dd78 d23e
00000150: 095f 4b3e 86c1 1f3e 5c13 b83d 962c d63c
00000160: e75d c0ba 196c 6bbd f491 12bf 440a 033f
00000170: 0c0f 833d 813f b43d 5528 4bbc 9877 8e3d
00000180: 98a6 14bf d0b9 69be 4204 b03d 224f bfbd
00000190: 8645 663c a3ff 36bd 7ad1 c9bc 798e 9dbc
000001a0: a110 39be 4d38 053c c26d 033d 6115 71bd
000001b0: 2d3e afbb 27e8 b3be 0212 853d a3e8 10bf
000001c0: 27e1 faba 1f06 f5bc 6425 23bd e043 50bb
000001d0: 8faf 623e 36b4 b2be e879 39be fb47 e8bc
000001e0: 9c18 16be cc4d 093d 3bf7 07bd e445 d23d
000001f0: f80a 8bbd debc aabe 4215 a23d d67f 86be
00000200: a562 c93d 9acc d53d 3a35 2ebd 0d65 26bd
00000210: ae75 08be 5484 0cbd 1dc4 cbbe fc1d 40bd
00000220: 3114 ab3d 65a7 323e 521b d63c 3b9b 04be
00000230: f875 30bd b069 783d 274c 43bd 7100 613c
00000240: 7ecf d83d 106a d73d 1ee3 573e ad61 dfbc
00000250: 8abb d5bd c2b3 3d3d ad2b c4bc cd45 7abe
00000260: bf09 68be 28d9 4b3e 16b8 853e d07a 44bd
00000270: 04fb 803d e4bc 2bbe e981 94be ac08 8cbe
00000280: 1a93 853c 5691 1fbc b2b7 ea3c 38fd 8a3d
00000290: d4f7 80be 19df 76bd 1428 6bbd 37c3 a93d
000002a0: 305b b03d 257a 873d 138f ddbd 1ffb 01be
000002b0: fe65 a3bd 6688 c7bc 6ca6 dbbc 4cf0 eabc
000002c0: d626 a33d 02fd 0bbd 2969 74be 9400 f6be
000002d0: 5e11 a43c dbd1 2a3e 400a 863d 168b c83d
000002e0: 2fa9 41be 7580 fdbe bd94 80be dd27 ab3c
000002f0: 171c 753d 01d6 4cbb 87fa 38bd 10c1 05bf
00000300: 1d96 0ebf 04bd 00be 7648 543d e97d 7d3d
00000310: cf7f 82bd e796 a8be 5b76 9bbd 0d08 1dbe
00000320: 7125 cd3d 0ec2 593d be5a 1fbd 6e5e 963d
00000330: 29cd 1dbe 7d7e 7bbd e6af fcbd f540 debe
00000340: 0a14 4ebe e8e9 0a3c 9c62 67bd dd03 b1be
00000350: efd4 b93c e134 58bd f1df 84be e070 fd3d
00000360: 910d 8fbd f2f6 8cbd 1e27 63be f1b1 b13c
00000370: 9aa4 f53a b9d8 d03b c5e2 4c3e bd5c e8be
00000380: 3733 cdbd 1697 8ebe 777c 15be c6f2 9b3d
00000390: ac3b ea3d 54a0 13bd 8a17 aebd 856e f5bd
000003a0: 9aea 80be 78ac 27bd 98e5 90bb 7e77 883c
000003b0: 5beb 043b 33c2 693d 5d5c 49be 223b f6bc
000003c0: 4d83 a43c 21d8 e1bc e6af 793d 7dca 9bbc
000003d0: 3fe5 94bd 1c19 87be 0e95 aabd ee93 713c
000003e0: d445 e1bd 93b7 013e 786a babd 3a0e b53d
000003f0: c6c4 4ebd 6cea 9e3c 88a3 7f3c 12a3 24bd
-0.3012096 -0.26354122 -0.18220796 0.020355271 0.15305893 -0.057202835 0.028352302 0.11321344
0.12021185 -0.013378432 0.13562672 -0.023347614 -0.22110102 -0.6349427 0.10836685 0.13533662
-0.028619561 0.04846466 0.06645939 -0.25998685 -0.33690205 -0.089241594 -0.04082527 0.05793949
0.046659615 0.110591896 -0.27944776 -0.16843978 -0.0117142005 0.14551076 0.00014470624 -0.032438654
0.0639512 -0.49847496 -0.027720986 0.109025285 0.44420317 0.0047689816 0.007281698 0.08955682
0.030700115 -0.6200066 -0.012972454 0.09090532 -0.046326254 0.12337878 0.076714605 0.05371341
-0.15555412 -0.14990063 -0.17258154 -0.2972372 0.14765267 0.123972625 0.060221698 -0.026628869
0.056862753 -0.17530163 -0.17103209 -0.23162876 0.16290462 0.0018882088 0.0486638 -0.02926708
-0.044087097 0.044617567 -0.26397684 0.044651117 -0.023501191 0.073312305 -0.002252417 -0.07105168
0.14104238 -0.007846629 -0.118583456 -0.012327937 -0.010853686 0.088048436 0.10421317 0.12064257
0.01743079 -0.14994532 0.2666362 0.41107836 0.19860472 0.15601167 0.089880675 0.026144307
-0.0014676423 -0.057476137 -0.57253957 0.5118754 0.06399354 0.08801175 -0.012399753 0.069564044
-0.580667 -0.22824788 0.08594562 -0.09341265 0.014054662 -0.044677388 -0.024636019 -0.019232975
-0.1807275 0.008131099 0.032087095 -0.05885828 -0.005347988 -0.35138056 0.06497575 -0.56604975
-0.0019140587 -0.029910145 -0.03983058 -0.0031778738 0.22137283 -0.34903115 -0.1811291 -0.028354635
-0.14657825 0.03352146 -0.03319476 0.10267237 -0.067892015 -0.3334722 0.07914211 -0.26269406
0.09833268 0.10439415 -0.04253123 -0.040623713 -0.13326141 -0.034305885 -0.3979806 -0.046903595
0.083534606 0.17446668 0.026136074 -0.1294984 -0.043081254 0.060647666 -0.047680046 0.013733015
0.10586451 0.10518277 0.21082732 -0.027268255 -0.10436161 0.04631401 -0.023946607 -0.2444069
-0.22659968 0.19907057 0.2611701 -0.047968686 0.062978774 -0.16771275 -0.29005364 -0.27350366
0.016305495 -0.009739241 0.028652046 0.06786579 -0.25189078 -0.060271356 -0.05741127 0.082891874
0.08611143 0.06615094 -0.10818305 -0.12693451 -0.07978438 -0.024357032 -0.026812755 -0.028679036
0.07966392 -0.034176834 -0.2386824 -0.48047316 0.020027813 0.16681616 0.06544924 0.097921535
-0.18912195 -0.49512067 -0.25113478 0.020893032 0.05984124 -0.0031255486 -0.045160796 -0.52247715
-0.55697805 -0.12572104 0.051826917 0.061887655 -0.06372034 -0.3292763 -0.07590934 -0.15335102
0.10016907 0.05316358 -0.038904898 0.0734223 -0.15410294 -0.061399926 -0.123382375 -0.43408933
-0.20124832 0.008478619 -0.056490526 -0.3457326 0.022684542 -0.052784804 -0.25952104 0.12375045
-0.069850095 -0.068830386 -0.22182891 0.021691294 0.0018741072 0.0063734916 0.2000838 -0.45383254
-0.10019534 -0.27849644 -0.14598261 0.07614665 0.11437163 -0.036041573 -0.085005835 -0.119839706
-0.25178987 -0.040935963 -0.004421901 0.01665854 0.0020281884 0.05706997 -0.1966414 -0.030057494
0.02008214 -0.027568879 0.060958765 -0.019017452 -0.07270288 -0.26386344 -0.08329211 0.014744742
-0.10999647 0.12667684 -0.091023386 0.08840604 -0.050480627 0.01939889 0.015602954 -0.04019458

fc.bias f4 [47]
00000000: 573f e0bc 6a66 ad3d 67a6 6dbc f0c6 1dbd
00000010: 8ccb 6fbd 1a1b 24bd 7bf7 63bc 3c8e c1bb
00000020: 7f14 14bd 3d28 033b f514 603d 5069 82bd
00000030: 740e c63c fa13 56ba d762 bd3d 2de5 2fbd
00000040: 8777 0ebe 80f7 05bd 1376 ce3d 5adc 1a3c
00000050: 6cd2 16be 3215 1b3c 500d 0ebe e186 31bd
00000060: e473 413d 083d 3dbc 9c68 b9bd 163d 89bd
00000070: 0e2e 1e3d d090 333c 7a58 76bc ed10 c43d
00000080: 51ef 94bd 951c d0bd 6245 46bc a5f2 233d
00000090: 47a8 a13b 222c 9f3c 75f0 de3a 0924 b1bb
000000a0: 3923 423d 3daf f63c 7c96 23bd 4425 a73b
000000b0: f770 203d 075e 50bc d332 d7bb
-0.027373953 0.084667996 -0.014505005 -0.0385198 -0.058543727 -0.04006491 -0.013913984 -0.0059068482
-0.03615236 0.0020012998 0.054707486 -0.06367743 0.024176814 -0.0008166429 0.09247368 -0.04294317
-0.13912784 -0.032706738 0.100811146 0.00945195 -0.14728707 0.009465503 -0.13872266 -0.04334152
0.047229663 -0.0115501955 -0.09053156 -0.06701104 0.03861814 0.010959819 -0.015035743 0.09573541
-0.072722085 -0.101617016 -0.012101503 0.040026326 0.0049333903 0.019430224 0.0017008918 -0.005405907
0.047396872 0.030112857 -0.039938435 0.005100878 0.03917023 -0.01271773 -0.006567338
