HW5/python/model.ckpt (torch_old, 119036 bytes, 14 tensors)

layer1.0.weight f4 [16, 1, 5, 5]
000000 96 01 9c 3d c6 d2 b1 3d e2 0f 94 bd eb c1 17 bc
       0.0761749 0.0868278 -0.07229592 -0.009262542
000010 ce 3a 6c be bd ee cf bd 8c d8 a5 3d 5d d9 b0 3e
       -0.23069307 -0.101529576 0.08097944 0.34540835
000020 f1 80 86 bb fe 9d 98 be ea 3a b8 3d 4f 7e 12 be
       -0.0041047265 -0.29808038 0.08995612 -0.14305995
000030 ac a7 d8 3d 76 f2 7b 3e 73 66 13 bd 5c e3 8f be
       0.10578856 0.2460421 -0.035986375 -0.2810315
000040 b7 a8 77 be 87 e2 18 3b 39 c5 f3 3d 9c 6c 83 bb
       -0.24185453 0.002332838 0.119028516 -0.00401075
000050 0f fb 3c 3e 0c ec 5c bd e3 88 10 bd 43 dc 6b 3b
       0.18455146 -0.05393605 -0.035286795 0.003598944
000060 3c 58 86 3d c9 cb 85 3d 4d 6d cb bd 9a 04 bb bd
       0.06559798 0.065330096 -0.09932957 -0.09131737
000070 07 8f 94 be 00 ec 26 be e1 1d a7 3c 6e b2 d7 3d
       -0.2901537 -0.16300964 0.02039999 0.1053208
000080 fd 42 3a 3d f4 5b a4 bd b4 77 9d 3d 2c ae 3a 3e
       0.04547404 -0.08025351 0.07688847 0.18230504
000090 b3 cb 0e 3e 2a ed a0 3e a8 72 66 3e 36 39 87 3e
       0.13944893 0.31430942 0.22504675 0.26410836
0000a0 59 8f aa bd bb bf 47 3e 87 6e ca bc 0e 0d 68 be
       -0.08328123 0.19506733 -0.024710907 -0.2266123
0000b0 4d 90 62 3e bf 57 8e be f8 fa 1e be bb 8b cc 3c
       0.22125359 -0.2780132 -0.15525424 0.024968972
0000c0 80 38 17 be da f5 4a bd a5 19 93 be 0b 60 32 bd
       -0.14767647 -0.04955087 -0.28730503 -0.043548625
0000d0 ee 29 1e 3d 24 a9 ff bb 95 10 93 3d b4 e8 bc be
       0.038614206 -0.0078021456 0.07180897 -0.36896288
0000e0 ee 86 43 3e 74 69 8b 3e 04 23 55 be 00 24 e4 3d
       0.1909444 0.27228892 -0.20814139 0.11139679
0000f0 82 3c 83 be f7 2c d7 bd 07 31 3a 3e 02 6f db 3d
       -0.256321 -0.10506623 0.18182765 0.107145324
000100 c1 00 dd 3d 2c fc c6 bd dd 9d 3e 3e 2d a5 4b be
       0.107911594 -0.09716067 0.18614908 -0.19887228
000110 55 cb 9f be 12 93 8c 3d 4d ca f3 3d 1a 9a 5c 3e
       -0.31209818 0.06863989 0.1190382 0.2154316
000120 9d 43 30 be e7 17 62 3d b3 54 31 bd c1 00 84 be
       -0.17213292 0.055198576 -0.043293666 -0.25781825
000130 55 86 2c be 66 d0 8b be b6 8e 31 be 43 04 09 bc
       -0.16848119 -0.27307433 -0.17339596 -0.0083628325
000140 f8 b3 4a be fe e7 be bd 5f ac e0 bd 16 43 74 3e
       -0.19795215 -0.09321593 -0.10970377 0.23853716
000150 10 33 5f bd 2c 6d 8a be cc 5d 3d bd a3 cc 37 bd
       -0.054492056 -0.27036417 -0.04623203 -0.04487289
000160 fd f1 50 3e 9d 64 40 bd 3a e0 ea bd 3d b6 e4 bd
       0.20404811 -0.046970952 -0.11468549 -0.11167572
000170 ef 39 66 3e 87 cf 22 3e 48 07 42 3e a4 30 8e be
       0.22483037 0.15899478 0.1894809 -0.27771485
000180 31 a0 2a be 9c a5 29 3d 7b fd 01 3d c1 4c a5 3d
       -0.1666267 0.041417703 0.03173588 0.0807128
000190 92 cc d5 bc 3a d6 c5 3d c2 75 3b 3e 32 15 4c 3e
       -0.026098523 0.09660001 0.1830664 0.1992996
0001a0 5f 8b 4d 3e 91 e2 02 3e 16 62 58 bc 6d 8c a3 bd
       0.20072697 0.1278174 -0.013206979 -0.079857685
0001b0 d2 6b 3e 3e ff 8c 47 be 58 a3 20 be 65 e6 cb 3c
       0.18595818 -0.1948738 -0.1568731 0.024890134
0001c0 c4 4b 24 3e c6 8e 10 be aa 5d 99 be f1 5e 91 3d
       0.16044527 -0.14116964 -0.29954273 0.07098187
0001d0 d3 e9 7a be c9 d8 90 be 02 85 b6 be 66 3c 04 be
       -0.2450326 -0.28290394 -0.35648352 -0.12913665
0001e0 c7 38 77 bc 78 be 94 3d ba 23 cc bc 21 e3 66 3d
       -0.01508922 0.072628915 -0.02491938 0.05636895
0001f0 d4 78 5e 3e 56 8f 57 3d ed 91 08 be b4 77 86 bd
       0.2172578 0.05262693 -0.13336916 -0.065658
000200 b9 fa 40 3e 98 2c fa 3b 11 e0 63 be 8e df 41 be
       0.18845643 0.0076347105 -0.22253443 -0.18932936
000210 f8 7e 3a be 3b cc 57 3e 83 ca 54 3d 75 9a 21 be
       -0.18212497 0.21074001 0.051950943 -0.15781577
000220 b1 05 a0 bd cd 31 d0 be 7a 2e 8a be 73 32 bd 3d
       -0.078135855 -0.40662995 -0.26988584 0.09238138
000230 20 c4 a6 3d b5 d8 ca bd 76 8b 1f be 65 ef 82 be
       0.081428766 -0.09904615 -0.15580544 -0.2557327
000240 45 97 bf be 7e e9 25 3e ef 95 27 3e 1a fd 3f 3e
       -0.37420097 0.16202351 0.16365789 0.18748894
000250 69 2c 96 3d eb df 9c bd 41 cd 65 3e 09 56 e4 3d
       0.07332689 -0.076598965 0.2244158 0.111492224
000260 aa 8d 85 3e 1a 76 0c be ad c4 1f bd 38 d4 38 be
       0.26084644 -0.13716927 -0.039005924 -0.18049705
000270 05 a6 70 be aa ab b4 be 21 2b 0a be 63 18 c0 3d
       -0.23500831 -0.3528722 -0.13493015 0.093796514
000280 75 73 61 be ab 7a eb bd 0b 30 50 3e 8d ef 25 3e
       -0.220167 -0.114980064 0.20330827 0.16204663
000290 19 5d 0f 3d 52 10 be 3d d2 61 be 3e 2c 17 7d bc
       0.035000894 0.092804566 0.37184006 -0.015447419
0002a0 ea ea e7 3c 0e ad 0e bd 48 6c 0d 3e 79 40 87 be
       0.028310258 -0.034833007 0.13810837 -0.26416376
0002b0 30 2e b8 bd 6e 62 4d 3b 62 c7 b1 bd 0a 27 58 be
       -0.089931846 0.0031339186 -0.086806074 -0.21108642
0002c0 04 15 e3 3d 79 46 35 be 6b 26 2d be 04 b2 ed bc
       0.11087993 -0.17702664 -0.16909187 -0.029015549
0002d0 47 e2 13 3e 20 c9 5b 3d e2 67 c0 bd 34 7d 81 bc
       0.14441787 0.053658605 -0.09394814 -0.015806772
0002e0 91 31 24 be dd 3d 91 3d cd 7b 28 3e d2 23 24 be
       -0.16034533 0.070918776 0.16453476 -0.1602929
0002f0 f7 55 d2 bd f8 1a a2 3e 22 77 3f be c1 97 0a be
       -0.10270303 0.316612 -0.1869779 -0.13534452
000300 ff 85 84 bd 7f 78 9f 3e a0 1f f9 3c 52 28 77 3d
       -0.0647087 0.3114662 0.030410588 0.060341187
000310 18 19 4d 3e d4 88 29 3e af 2b 34 3b 72 2c 2c be
       0.20029104 0.16556102 0.0027491858 -0.1681383
000320 32 47 06 3e 05 87 c3 3d 38 91 04 3e 02 21 32 3e
       0.13113096 0.09547237 0.12946022 0.17395404
000330 88 1f 87 3c 12 4b 59 be d2 9f 8b 3d ab 02 1b 3e
       0.016494527 -0.21220043 0.06817593 0.15137736
000340 81 a9 26 3d 89 bd ea bc 0b eb 43 be aa ce 9a be
       0.040688995 -0.02865483 -0.1913263 -0.30235797
000350 b9 31 3f be 38 f3 9c be 1e dc ac be bd 77 17 bd
       -0.18671311 -0.3065431 -0.33761686 -0.036979426
000360 81 ad 90 3d 5f e2 42 be a8 0a c4 bc 52 ec 01 3e
       0.07064343 -0.19031666 -0.023930863 0.12687805
000370 fc 43 85 3d 24 49 4f be db 73 66 3d e3 2a 43 3d
       0.065071076 -0.20242745 0.056262832 0.04764832
000380 67 31 f6 3d ad c9 0b 3d 94 f2 39 3e 69 38 8c bd
       0.120211415 0.03412788 0.18158942 -0.06846697
000390 4c 42 1b 3d f8 97 94 be 53 21 a6 bc 5b f7 9a 3d
       0.037905023 -0.29022193 -0.020279562 0.075667106
0003a0 0a 1d 80 3d be db e7 bd ee 9a a5 be 62 d2 10 bd
       0.06255539 -0.11321209 -0.32344764 -0.035356887
0003b0 42 13 60 3e d5 c8 8b 3d 03 73 24 bd ed 8f 74 bd
       0.21882346 0.06825415 -0.040148746 -0.05970757
0003c0 1a ac 63 3d 19 ac 8d 3e 03 1e 37 be aa 0d b7 be
       0.05558405 0.27670363 -0.17882542 -0.35752612
0003d0 b8 ce 48 be d8 cb 81 bc 27 e7 58 bd 95 6a 7b bd
       -0.19610107 -0.01584427 -0.05295482 -0.06138094
0003e0 10 e4 8f be d1 65 4f be fb e2 3f 3e b5 2c b1 3d
       -0.28103685 -0.20253684 0.1873893 0.08651105
0003f0 b7 4d c3 bd 00 a7 a2 be f2 59 d3 3c 50 a5 9a 3e
       -0.09536307 -0.31768036 0.025799725 0.30204248

layer1.0.bias f4 [16]
000000 4c 14 e8 c0 82 6e e7 c0 1e 13 03 c1 c5 3b da c0
       -7.2524776 -7.2322397 -8.192167 -6.819796
000010 e2 18 d6 c0 64 80 ed c0 0d 48 d7 c0 88 7c f9 c0
       -6.6905375 -7.4219227 -6.7275453 -7.7964516
000020 ba e5 df c0 ef 85 fb c0 3e 8c ee c0 44 b8 fb c0
       -6.996793 -7.8600993 -7.4546194 -7.8662434
000030 96 41 ea c0 82 72 f3 c0 47 e4 04 c1 44 ca 00 c1
       -7.320506 -7.607728 -8.305732 -8.049381

layer1.1.weight f4 [16]
000000 2f 8b e0 3e 12 2b 46 3e 10 dd e2 3e 09 6a c2 3e
       0.4385619 0.19352368 0.44309282 0.37971523
000010 66 f4 bb 3e 10 48 6d 3f 33 2d 91 3e 0d c0 f2 3e
       0.367099 0.92688084 0.28354797 0.47412148
000020 18 6a c9 3e 51 cf 25 3f e2 79 0c 3f ca 51 18 3f
       0.39338756 0.64769465 0.5487348 0.594998
000030 73 6d ae 3e 90 e1 c7 3e 3c 3b 10 3f e9 81 cc 3e
       0.34067878 0.39039278 0.56340384 0.39942864

layer1.1.bias f4 [16]
000000 41 2c cb be 6c aa 57 be 69 f9 65 be 50 e6 b8 bc
       -0.396822 -0.21061105 -0.22458424 -0.022570759
000010 b6 3a b3 bd dd 61 58 be c1 55 b1 3d 08 a5 85 be
       -0.087514326 -0.21131082 0.086589344 -0.2610247
000020 76 27 18 be 05 dd 03 be 63 84 23 be ed 6e f2 bd
       -0.14858803 -0.12877281 -0.1596847 -0.11837564
000030 0c 0a 02 be b1 79 91 bd 89 35 8f be 7d e2 e1 be
       -0.12699145 -0.07103289 -0.27970532 -0.4411811

layer1.1.running_mean f4 [16]
000000 cd 55 e8 c0 0a 87 e6 c0 d1 c1 03 c1 fd 5e df c0
       -7.2604737 -7.2039843 -8.234818 -6.9803452
000010 fb 7f d7 c0 46 2e f3 c0 e9 d0 d7 c0 e9 8f f9 c0
       -6.7343726 -7.5993986 -6.7442517 -7.798817
000020 d2 d2 e2 c0 00 58 00 c1 5f 91 ef c0 69 e6 ff c0
       -7.088235 -8.021484 -7.4864955 -7.9968762
000030 7e e2 ea c0 b9 74 f7 c0 4a 95 06 c1 43 eb fe c0
       -7.340148 -7.7329984 -8.411448 -7.9662185

layer1.1.running_var f4 [16]
000000 5a a1 ab 3c 64 9c 43 3d 48 15 3a 3d 92 4f 47 3e
       0.020950962 0.047756568 0.04543045 0.19463947
000010 55 13 9a 3d 8b 70 1b 3e 48 35 a3 3c 8d 39 dc 3c
       0.075232185 0.1517965 0.019922867 0.026882911
000020 bc 2b a1 3d d6 3f 45 3e 6c 4f 6a 3d 47 b8 f2 3d
       0.0786967 0.19262633 0.05720465 0.11851554
000030 20 67 93 3c 7a 7f f5 3d a7 eb 63 3d 2a a9 70 3d
       0.01799351 0.11987205 0.055644657 0.058755077

layer2.0.weight f4 [32, 16, 5, 5]
000000 85 fe 05 bd 74 53 c4 bc b4 84 88 be eb fd 55 39
       -0.032713432 -0.023965575 -0.26663744 0.00020407855
000010 8f 2a 91 bd d7 2a 38 bd 03 b1 80 3d a1 4a 85 3b
       -0.070881955 -0.04496273 0.06283762 0.0040677343
000020 2a 55 76 3e a6 b5 5c 3e 65 16 8c bd 89 fd c9 3a
       0.24055925 0.21553668 -0.06840209 0.0015410642
000030 2b bf 19 3e 77 e6 4b 3e 03 f6 91 3d 64 d5 80 bc
       0.15014331 0.19912134 0.07127001 -0.015726753
000040 da d8 24 3e 7f 6b c1 bd 91 5d 32 be 81 15 64 bd
       0.16098347 -0.094443314 -0.17418505 -0.05568457
000050 04 b7 fd 3c 4f 33 bc bd 1f ec b1 bd c0 3e 12 be
       0.030971058 -0.09189474 -0.08687615 -0.1428175
000060 36 75 08 be fd b6 2d 3e a7 d8 19 3e f1 8e 94 3c
       -0.13325962 0.16964336 0.15024053 0.018134566
000070 a6 d7 7d bd 7a 9b 0a 3e ab fe 88 3d b0 ba 82 bd
       -0.061973237 0.13535872 0.06689199 -0.06383264
000080 9a c0 9f bc d2 cd 09 be 36 dc 5f 3d 04 ea a2 bb
       -0.01950102 -0.1345742 0.05465337 -0.0049717445
000090 3a 74 26 3d b5 46 2e be 71 b3 04 be 46 eb 2d be
       0.040638186 -0.1701916 -0.12959076 -0.16984281
0000a0 96 2f e5 bc 20 7c 5b 3e 70 4f e2 3d 53 02 32 3d
       -0.027976792 0.21434069 0.11050308 0.043459248
0000b0 42 e1 9f bb 6b d7 e6 bb ef da 92 3d 33 86 17 3e
       -0.0048791477 -0.007044723 0.071706645 0.14797287
0000c0 b0 d4 94 3e 38 3e 80 3e e0 a0 f2 bc 70 1e ac bd
       0.29068518 0.2504747 -0.029617727 -0.08404243
0000d0 11 44 58 bc b4 9b 8a be 16 91 74 3d f4 09 cb bd
       -0.013199822 -0.27071917 0.059708677 -0.09914008
0000e0 98 cc 62 3c c4 af e3 bd d7 8f 0c be af f3 2d 3d
       0.013842724 -0.11117509 -0.13726746 0.042468723
0000f0 5d 0a a0 bd 36 13 d5 3d 26 36 80 3d 29 80 e5 3d
       -0.07814477 0.10404055 0.06260328 0.11206085
000100 6b 24 22 bd 83 0b 04 3e 4b 02 80 3d 2a cd ab bd
       -0.039585512 0.12895016 0.06250437 -0.08388741
000110 67 91 15 be b8 2b 99 3c c0 f0 7e 3d e7 87 9d 3c
       -0.14606248 0.018697605 0.062241316 0.019229842
000120 d7 3c ae be 02 fa 2d bd 94 f3 13 3e 68 b2 35 be
       -0.34030792 -0.042474754 0.14448386 -0.17743838
000130 14 cb 7e bd cb b0 a7 bd b9 26 4b 3e c3 5d 3f 3e
       -0.06220539 -0.081880175 0.1983899 0.18688111
000140 bd 04 af bd 52 49 97 3c a5 1d 80 3d 70 18 36 3e
       -0.08545826 0.018467579 0.06255654 0.1778276
000150 9c 58 e4 3d d0 03 56 3e 17 70 0a 3e 7d a5 4b bd
       0.111497134 0.20899892 0.13519321 -0.04971837
000160 19 65 20 bd 8a fc c0 bd ca 36 44 3e 0f f1 0c bd
       -0.039158914 -0.09423168 0.19161525 -0.03440958
000170 2a e8 05 be 1d 7d b6 bb 17 9e f4 3d 9b 15 64 3d
       -0.13076845 -0.005569114 0.11944216 0.055684667
000180 42 a8 42 bd 73 97 76 3d c8 de fa 3d dd ca 69 3e
       -0.047523744 0.060203027 0.122495234 0.22831292
000190 e0 9c 68 3c da 0b cb bd 58 e8 69 bd 4d bf 24 3d
       0.014197558 -0.0991437 -0.057106346 0.0402215
0001a0 2b 05 f5 3c f4 c0 98 3d 18 a4 fe bd 17 c4 f4 bd
       0.02990969 0.07458678 -0.12433642 -0.11951464
0001b0 10 ce f0 bd 78 f6 3b 3e de ac fa bd dc 1a 93 bb
       -0.11758053 0.18355739 -0.12240003 -0.004489286
0001c0 15 43 db 3b 2e a6 c2 bd 54 c9 bf bd df bc f7 3d
       0.0066913464 -0.095043525 -0.09364572 0.12096571
0001d0 18 ed 4f 3e 96 49 cc 3d 2d dc 33 bd dd 41 0f be
       0.20305288 0.09974973 -0.043911148 -0.13989969
0001e0 59 62 2f 3e b3 0b 01 3e 2d 61 a1 3d b6 3c c8 bd
       0.1712736 0.12602119 0.07879863 -0.09777205
0001f0 f0 b9 90 3d db 7c b3 bd 8e 87 73 bd 10 63 1b 3e
       0.07066715 -0.08764049 -0.059455447 0.15174508
000200 f0 31 8f bc d5 52 14 3e 3f 83 b5 3d 9a f7 a0 3d
       -0.017479867 0.14484723 0.08862924 0.07859726
000210 b0 70 43 be 8c c1 34 3c 15 9c a1 3d c7 2b 97 bd
       -0.19085956 0.011032473 0.078910984 -0.07381397
000220 04 cf 98 3d 2d cb 42 bd d3 54 74 3d 8b 5d f5 bd
       0.0746136 -0.047557045 0.059651207 -0.119807325
000230 46 69 de bd 6a ef ce 3d 18 2d 8e 3d 6d 40 17 be
       -0.10859923 0.10104258 0.06942195 -0.1477067
000240 2f 1c 20 be 5e 77 84 bd a1 f9 56 3e 46 b4 53 3e
       -0.15635751 -0.0646808 0.20993663 0.20674238
000250 41 c9 68 bd d5 38 59 be 50 ef 93 bd 27 d6 14 be
       -0.056832556 -0.21213086 -0.072233796 -0.14534818
000260 0d 1c 89 be 14 85 df bd 67 99 2f 3e 55 c9 e3 bd
       -0.26779214 -0.109140545 0.17148362 -0.111223854
000270 eb f8 70 bd f8 cf 14 be 75 83 ad bd 40 ff 6f 3d
       -0.058831137 -0.14532459 -0.08472339 0.058593035
000280 65 19 62 3e f5 b9 3a 3d e5 5f ca bd f0 b6 c6 bd
       0.2208 0.0455875 -0.09881572 -0.09702861
000290 97 6d a9 be eb 4e db 3c 68 97 d6 3d 15 bd 10 3e
       -0.33091423 0.02677103 0.10478097 0.14134629
0002a0 ef ef 26 3e 5e 6d 04 be 19 27 94 be 77 73 95 3a
       0.16302465 -0.12932345 -0.2893608 0.0011402209
0002b0 c5 d4 09 3e 67 79 1a be a9 ab 2d 3e 0a 03 c7 bd
       0.13460071 -0.15085374 0.16960014 -0.097173765
0002c0 3a 1f d9 bd 92 cf 06 be 43 ea 8f 3d 77 3f 96 3d
       -0.10601659 -0.1316512 0.07027104 0.07336324
0002d0 ec 3c 3a be 6f fb 3c be 4b d8 0b 3d 0e 8b 0f 3d
       -0.18187302 -0.1845529 0.03414182 0.035044722
0002e0 ce 85 b7 3d 33 4c 42 3c da 18 e3 bc d7 10 ae 3d
       0.08961068 0.011858988 -0.027721811 0.08499306
0002f0 8e a8 9d bd 21 ff 7e bc 2c 87 33 3d 3c 39 60 bd
       -0.07698165 -0.015563757 0.04383008 -0.054742083
000300 a7 51 8d 3d 56 da be bd 76 05 57 3c 0f 4d e3 bd
       0.069003396 -0.09318988 0.013123861 -0.11098682
000310 7f 31 f9 3c c6 90 8c bd 75 1c 02 bd 79 3d 34 3e
       0.03041911 -0.06863551 -0.03176542 0.17601575
000320 67 ac 2c 3e e5 b5 cf bd 76 a0 95 3d e9 31 0b 3e
       0.16862641 -0.101421155 0.07305996 0.13593258
000330 6d 3c 95 bc 08 ed 32 3e 02 95 20 be 1a 18 5c bd
       -0.01821729 0.17473233 -0.15681842 -0.053733923
000340 3c a8 3e bd b5 56 02 3e 14 81 9a 3d a6 e9 d8 bc
       -0.04654716 0.12728389 0.07544151 -0.0264786
000350 5e 98 14 be 79 fd d4 bd f0 87 89 bd 01 a2 fa 3d
       -0.14511248 -0.103999086 -0.06715381 0.12237931
000360 b1 de 77 3e b9 e4 e9 3d cb 7a 9c bd c4 8f 9e be
       0.24206044 0.114205785 -0.076406084 -0.3096906
000370 3d a8 9f 3d af ff b1 3d d8 4b 51 3e e1 e9 ee bd
       0.07795761 0.08691346 0.20439088 -0.116657026
000380 18 e9 a7 3d de 44 ba bd 22 ef 28 3e eb 14 44 3d
       0.08198756 -0.090951666 0.16497472 0.04787151
000390 9e ba 4c 3d 71 c2 f6 3d b2 70 85 3d cd 15 ee 3d
       0.04998266 0.120488055 0.065156356 0.11625252
0003a0 f5 17 64 3e fb 8a 76 3e c4 c7 21 3e e5 96 14 3e
       0.22274764 0.24076454 0.15798861 0.14510687
0003b0 37 01 96 3e 1c de 36 3e 0f 3f 0b 3e 66 11 8b 3d
       0.29297802 0.17858166 0.13598274 0.06790428
0003c0 93 a1 61 3e 3b ac 16 3d 5d 8f 21 3d 1f 70 a6 bd
       0.22034292 0.036785346 0.039443363 -0.08126854
0003d0 b4 87 18 3c 46 e2 20 bd 23 22 b8 bd 66 d2 16 be
       0.009309698 -0.03927829 -0.08990886 -0.14728698
0003e0 06 f3 cc bd b1 ef 9d 3d cb 7b 13 3c 6e dc 35 3b
       -0.100072905 0.07711733 0.0090016825 0.0027749795
0003f0 36 0a 9d bd 2f 6c 32 be 1f 86 50 bd 3e 2e 20 be
       -0.07667963 -0.17424081 -0.050909158 -0.1564264

layer2.0.bias f4 [32]
000000 97 cc 5d bc 7f 4c c4 3d 01 e3 4b 3d d8 bd ed 3d
       -0.013537548 0.09584903 0.049777035 0.116084754
000010 7d 13 98 3d 00 cf d2 3d 9a c4 5f 3d a6 87 79 bd
       0.07425592 0.10293388 0.054630853 -0.06092038
000020 34 1d 7b 3c f2 35 c7 bb 3f c1 38 be ee 8b be 3d
       0.015326787 -0.006079429 -0.18042468 0.09304033
000030 1f 7e d1 3d a3 ab e2 3d c1 30 31 be 6c 38 2c bd
       0.10229134 0.11067893 -0.17303754 -0.042045996
000040 d5 9a 1e be 5d ff 06 be f7 91 24 3e 3c 8e d7 3d
       -0.15488751 -0.13183351 0.16071306 0.10525176
000050 39 69 d1 3d c2 b1 de 3d b2 31 e6 bd 2a 93 c2 bc
       0.10225148 0.10873748 -0.112399474 -0.023751814
000060 94 0a 54 3e 78 aa cb bc 8d d6 50 bd 6f 0e 5d 3e
       0.2070716 -0.02486156 -0.05098586 0.21587537
000070 ec 3d 64 3d a3 8b 2d be 4a e4 b3 bd ee e1 8b 3e
       0.055723116 -0.16947798 -0.08783777 0.27320808

layer2.1.weight f4 [32]
000000 a7 c7 8a 3f 2a 10 89 3f 15 38 68 3f a0 fb 9b 3f
       1.0842179 1.0708058 0.90710574 1.2186165
000010 95 62 4a 3f a6 d7 64 3f 8e 74 61 3f 7e 30 20 3f
       0.79056674 0.89391553 0.88068473 0.62573993
000020 a2 da 90 3f 76 50 22 3f d3 90 74 3f 1f 8d a8 3f
       1.1316721 0.63404024 0.95533484 1.3168067
000030 9c 91 ab 3f 71 6e 9e 3f 2f 9e 54 3f 26 d6 91 3f
       1.3403811 1.2377454 0.8305387 1.1393478
000040 6c b7 6c 3f 82 3e 5d 3f db 4a 84 3f 65 ee 8e 3f
       0.9246738 0.86423504 1.0335344 1.1166502
000050 1d fb 80 3f b9 51 3d 3f 42 71 6f 3f 44 6d 6d 3f
       1.0076634 0.73952824 0.9353219 0.9274485
000060 27 45 81 3f 5c c4 2b 3f b2 80 a0 3f 70 12 07 3f
       1.0099229 0.67096496 1.2539275 0.5276251
000070 ba 71 32 3f e6 3d 98 3f d1 3c 36 3f f3 c6 35 3f
       0.6970478 1.189389 0.7118655 0.710067

layer2.1.bias f4 [32]
000000 86 49 27 be b7 ab 0e be b4 2f ad be eb 7a e8 be
       -0.1633664 -0.13932692 -0.33825457 -0.4540628
000010 78 cd 94 be ca bd 42 be 42 d1 b2 be 9a 2c 31 be
       -0.2906301 -0.19017711 -0.34925276 -0.1730217
000020 9e 0d ca be 65 f6 56 be be 8c f1 bd 15 8b 0a bf
       -0.39463514 -0.2099243 -0.117944226 -0.5411847
000030 c6 01 05 bf 4f 89 56 be ef 7c 94 be 01 e1 b9 be
       -0.5195583 -0.20950817 -0.29001567 -0.36304477
000040 2d 32 c5 be 1b 58 a0 be 37 77 82 be c4 5c a4 be
       -0.38514844 -0.3131722 -0.2548158 -0.32102025
000050 96 b0 9e be e3 e5 a3 be b1 72 ae be 15 05 b4 be
       -0.309941 -0.32011327 -0.34071878 -0.35160127
000060 ab 28 a9 be bb c4 60 be 7b 65 67 be 20 44 8c be
       -0.3303884 -0.21950047 -0.22597305 -0.27395725
000070 05 c9 64 be 2f 3b b4 be 85 8a 5f be 86 1b 98 be
       -0.22342308 -0.35201403 -0.21830185 -0.297085

layer2.1.running_mean f4 [32]
000000 7c 7d 66 3e 9b 81 f9 3e 94 e3 c1 3d db 76 a8 be
       0.22508806 0.48731694 0.09467235 -0.3290318
000010 85 74 11 3e 5f 15 55 3e a0 99 99 be 1f b3 2b 3d
       0.14204605 0.20808934 -0.3000002 0.04191887
000020 30 db 2d be 83 96 1a bf df 4a 86 3e 1c 09 d0 be
       -0.16978145 -0.6038591 0.26228997 -0.4063195
000030 12 98 7c be 0b cc 79 be 0e 0c 5c be 04 0f 61 3e
       -0.24667385 -0.24394242 -0.21488973 0.21978384
000040 43 38 84 bd b1 c3 b1 be 40 54 c8 3c 0f cf c3 3e
       -0.064560436 -0.34719613 0.024454236 0.3824391
000050 41 94 96 3e 52 01 46 3e 27 5f 06 be 2a de b0 3e
       0.29409984 0.19336441 -0.13122235 0.34544498
000060 b6 9e 0c 3e 29 db a0 be fc 30 1e 3f 7b a9 7b be
       0.13732418 -0.31417206 0.61793494 -0.2457637
000070 7c 2d bd be 4a be 04 bf 01 09 3c 3e bb 71 1c be
       -0.36948764 -0.5185286 0.1836281 -0.1527776

layer2.1.running_var f4 [32]
000000 2b d1 c0 3e e1 82 15 3f 0a 2d 1b 3f 92 7a 0b 3f
       0.37659582 0.5840283 0.606156 0.544839
000010 45 1c 0c 3f 4a 5a f3 3e 79 05 d4 3e 9c 00 27 3f
       0.54730636 0.47529823 0.41410425 0.65235305
000020 a6 a4 d9 3e ec 29 dd 3e d6 c2 09 3f dd 1d 1e 3f
       0.4250843 0.43196046 0.5381292 0.6176432
000030 7f 25 0b 3f 35 41 2e 3f ec b1 f7 3e ae 4a ed 3e
       0.5435409 0.6806825 0.4837793 0.4634604
000040 1f e2 d9 3e c1 82 97 3e 3a ac 09 3f 41 7d 1f 3f
       0.4255533 0.29591945 0.5377842 0.623005
000050 21 d6 fa 3e e2 44 08 3f 0c 90 d0 3e 25 c2 f7 3e
       0.48991492 0.53230107 0.407349 0.48390308
000060 da b6 f3 3e 99 75 00 3f 60 a5 52 3f 95 89 cd 3e
       0.47600442 0.5017944 0.8228359 0.4014403
000070 36 df f3 3e 97 8e 21 3f 74 a3 c6 3e bc 7a d6 3e
       0.47631234 0.631082 0.3879658 0.41890514

fc.weight f4 [10, 1568]
000000 9f ac 0e bc d5 de 80 bc 16 8c 38 bd 6b 23 c8 bd
       -0.008708148 -0.015731255 -0.04505547 -0.097723804
000010 68 2e d5 bc b6 83 31 be e1 7c 9a bc 2a ad 0e 3e
       -0.026023105 -0.173354 -0.018858375 0.13933244
000020 bc 11 cb 3c 33 e5 5f be e7 40 4e bd cb 6b 82 be
       0.02478873 -0.21864776 -0.050354864 -0.25472865
000030 ea 5a 4b be a6 cc e0 3d 9f 78 32 3e ea 99 ea bd
       -0.198589 0.109765336 0.17428826 -0.11455138
000040 f7 3c bc bd af fb 3e 3d bc 3f 51 be 5a 67 41 be
       -0.091913156 0.046626743 -0.20434469 -0.18887082
000050 6e db b6 3d b7 00 d7 bd 62 69 17 bd af 06 46 3e
       0.08928572 -0.10498183 -0.036965735 0.19338487
000060 7e b6 8d 3d 79 84 ec 3d 23 41 f6 3d fa 0d 2d 3d
       0.06919573 0.11548705 0.120241426 0.042249657
000070 66 8c 2b be a2 71 5d be 34 ab d0 bd b6 cc 0e 3e
       -0.16752777 -0.21625379 -0.101889044 0.13945279
000080 16 7c 56 3d 07 a7 83 3d 50 7c af 3d d4 fa 0a bd
       0.05236443 0.06428342 0.085686326 -0.033930615
000090 79 f3 aa bd 57 55 88 bc 33 4d 83 be 2d 2b 09 be
       -0.0834722 -0.016642256 -0.25644836 -0.13395377
0000a0 4f 2b 34 3c ac ba 9b bd ee d3 a4 3c 34 24 97 3b
       0.010996654 -0.07603964 0.020120587 0.00461247
0000b0 df cd f7 bd 4c f1 ed be 40 c8 c5 be ca 47 9d be
       -0.12099814 -0.46473157 -0.3862934 -0.30718833
0000c0 7b 0a 57 be 49 73 d6 3c b3 17 08 bd a7 99 b8 3c
       -0.21000092 0.02617802 -0.033225726 0.022534205
0000d0 e4 55 bc bc f6 80 d4 bc 77 d5 67 3d 26 58 53 bc
       -0.022990175 -0.0259404 0.05660006 -0.012899434
0000e0 7b 24 08 bc 00 a3 6f 3d 25 46 3c 3d c7 19 80 bb
       -0.008309479 0.05850506 0.045965333 -0.003909323
0000f0 d3 86 8f be ef ff ea 3d 7b 58 71 bc 60 36 d5 bd
       -0.2803255 0.11474597 -0.014730568 -0.10410762
000100 dc db 56 3c af 63 38 bd 7c eb a7 bd bb f4 65 be
       0.013113942 -0.04501694 -0.08199212 -0.22456639
000110 d0 36 d9 3d 35 1c 88 3d 52 4c c6 3c cb 28 bb 3d
       0.10606158 0.06646005 0.024206314 0.0913864
000120 31 ba b1 3c f6 cd c0 bd ce c6 8e bd 87 0d 71 3e
       0.021695228 -0.09414284 -0.06971513 0.23540317
000130 35 03 f4 bd cd 15 d6 bd 0d b6 0f 3e 3d 38 4e 3e
       -0.11914674 -0.10453377 0.1403429 0.2013864
000140 7b bf cb bd 76 78 a2 3d 52 64 74 3d 3b cd b6 3c
       -0.099486314 0.07933132 0.059665985 0.022314658
000150 e6 04 4c 3d d5 c4 1f 3e 7c 1c 54 bd 9b 2f 13 be
       0.04980936 0.15602429 -0.051784977 -0.14373629
000160 b0 01 53 be 1d ce a3 bd 80 c2 78 bc 6b 33 5c bc
       -0.20606112 -0.07998297 -0.015183091 -0.013439993
000170 9e c3 33 3e 3b db cc bd ce 30 57 bd e9 20 9b bd
       0.17555091 -0.100027524 -0.05253678 -0.075746365
000180 b7 df 07 be 25 79 21 3d 6a 49 8d bd 11 95 a2 bc
       -0.13268934 0.039422173 -0.06898768 -0.019846471
000190 03 d8 e5 bd 8c 6b 97 3d 74 24 ce 3b 99 26 42 3d
       -0.112228416 0.0739356 0.0062909666 0.04740009
0001a0 19 af 17 bd c1 95 d8 3c d4 a7 b1 bc 78 36 01 bc
       -0.03703222 0.026438596 -0.021686472 -0.0078865215
0001b0 fb 1f 6d 3e cd b2 80 be b1 f8 24 bd 8f 1e 76 3e
       0.23156731 -0.25136414 -0.040276233 0.24035095
0001c0 1a ae 08 be 8e 07 1b be c2 26 21 bd 59 70 14 3d
       -0.13347664 -0.151396 -0.039343603 0.036239956
0001d0 6e 7f c3 bd 8f 50 90 3d b7 48 22 3e 5a ca 19 be
       -0.0954579 0.07046615 0.15848051 -0.15018597
0001e0 e2 1b 17 bf f3 15 c9 be a8 96 bd be 52 fe 6c be
       -0.5902692 -0.39274558 -0.37029004 -0.2314389
0001f0 57 e7 21 be 96 74 92 3b 64 b9 21 bd 96 db 6d 3c
       -0.15810905 0.0044694645 -0.039483443 0.014517685
000200 54 66 aa 3d a8 41 72 bc 6c 29 bc 3d 1f 8a dc ba
       0.08320299 -0.0147861615 0.09187588 -0.0016825831
000210 53 53 88 3d c7 9b b7 bc 41 2e 93 3d 33 ef d9 3d
       0.06656518 -0.022413148 0.071865566 0.10641327
000220 b6 12 23 3e c2 2b 4b 3d cf ff 94 bd 52 45 5e bd
       0.15925106 0.049602278 -0.07275354 -0.054265328
000230 f3 83 67 bd df 59 a0 bc 94 40 8d 3d 35 d4 04 3e
       -0.05652232 -0.019574104 0.06897083 0.12971576
000240 ae 57 64 bd 85 34 80 be ed ae 61 be 4a 4f e7 3b
       -0.05574768 -0.2504007 -0.22039385 0.0070590125
000250 ef c0 55 3d 93 64 9c 3d 7c 72 f7 bd 03 8e 93 bd
       0.05218595 0.076363705 -0.12082383 -0.07204821
000260 10 27 41 be 80 21 0d 3d 69 3a 9c bc 88 4a 8f be
       -0.18862557 0.034455776 -0.01907082 -0.2798655
000270 ab 89 51 be 9f ef 68 3d cc 17 85 3d be 69 81 3d
       -0.20462672 0.056869145 0.064986795 0.06318997
000280 e1 f9 23 3e 80 c5 5e be a8 0e 0d bf 7a 45 08 be
       0.1601329 -0.21755028 -0.5510049 -0.13307753
000290 9f af a2 3c 1e 09 a6 bd ee 92 d1 be 01 77 03 3c
       0.019859133 -0.08107208 -0.4093241 0.008023978
0002a0 4c 72 c4 be 97 b0 52 be 01 7d c4 bd 28 76 dd 3d
       -0.38368452 -0.20575176 -0.09594155 0.10813552
0002b0 37 e2 a2 be 0c 4a d2 bd 84 0e a8 3d e8 af 01 3e
       -0.31813213 -0.102680296 0.08205894 0.12664759
0002c0 0d 54 0b 3d f5 f2 90 3d 51 e3 11 be 70 33 e3 bc
       0.034015704 0.070775904 -0.1424687 -0.027734488
0002d0 b2 78 a2 3c 19 14 42 3c fa 3b b4 3d f0 e0 98 3d
       0.019832943 0.011845612 0.08800502 0.074647784
0002e0 d5 cd 38 3d d5 a2 d3 3d 9f 6a 79 3d 58 b5 ec 3c
       0.04511817 0.10333792 0.060892697 0.028895065
0002f0 93 64 8f bd 2d dc 43 3e 43 21 1c 3c d3 6b 4e be
       -0.07001605 0.19126959 0.009529415 -0.20158319
000300 05 c6 e2 bd 93 12 6f bd 8b 1a ab bd c4 2a 61 bd
       -0.110729255 -0.058367323 -0.08354672 -0.054972425
000310 a5 d2 31 3e 85 79 09 bd 35 c9 11 be 04 a9 7f bc
       0.17365511 -0.033563156 -0.1423691 -0.015604261
000320 7e 08 30 bc dd 2b f9 bc 9b 87 2b 3e 87 d0 59 be
       -0.010744212 -0.030416423 0.16750948 -0.21270953
000330 1a 6e 64 be f6 cc a5 bd be 30 80 be 3d 1a 29 bc
       -0.22307625 -0.08095734 -0.25037187 -0.010321197
000340 0c 03 b4 bd 9c f4 17 3e 6c 89 de bc 5f d5 2e bd
       -0.08789644 0.14839405 -0.027165137 -0.042683955
000350 68 69 39 be e6 7f 43 3e 71 16 4d 3e 8c 92 c3 bd
       -0.18106616 0.19091758 0.20028092 -0.09549436
000360 fb 69 16 bb ca 1b 4e be 4a 92 f2 be 16 80 1a bf
       -0.0022951353 -0.20127788 -0.47377235 -0.60351694
000370 ad 0e df 3d 5b e7 22 bd 22 d5 86 3d 34 43 cd 3d
       0.10891471 -0.03977142 0.065836206 0.100225836
000380 06 37 75 bc 67 2b e8 bc d1 98 55 bd 5b 69 df bc
       -0.014966732 -0.028341008 -0.05214769 -0.027271917
000390 06 c8 0d be d7 f5 e0 bc c5 5f ce bd 55 34 aa 3c
       -0.13845834 -0.027460976 -0.1007686 0.020776907
0003a0 16 e3 99 3d aa 3d 06 3e 5e 60 02 3e 64 bc ac 3d
       0.07514016 0.1310946 0.12732074 0.0843437
0003b0 90 bc d2 bd 32 da 75 bd a9 1f 17 bc 4a f4 4e be
       -0.10289872 -0.06002254 -0.009223857 -0.20210376
0003c0 2d 22 0a 3d ca 38 2b 3d fc de 7e 3d 09 2b 86 be
       0.033724 0.041802205 0.062224373 -0.26204708
0003d0 7f fe 8e be 9c 06 46 bd d8 db 2c 3d 11 d0 84 bd
       -0.2792854 -0.048346147 0.042201847 -0.06484998
0003e0 8d f6 6b bb a3 d0 88 bd 6c 6b 4f be a7 d8 5d be
       -0.003600511 -0.06680419 -0.20255822 -0.21664678
0003f0 34 6b 81 3b 6a 1f 4c 3d 14 d4 0f bc 1f 33 af be
       0.003949547 0.049834646 -0.008778591 -0.3421869

fc.bias f4 [10]
000000 37 d3 91 3d 52 74 fb 3d df aa 27 bb c0 83 92 bc
       0.07120364 0.12278046 -0.0025584025 -0.017885089
000010 40 70 06 bd 87 4c 32 3c 7d cd 99 bc 79 0f fa 38
       -0.032821894 0.010882503 -0.018774742 0.00011923811
000020 7b 18 e2 bc 64 6f 7c bb
       -0.027599564 -0.0038518542
